model.tflite (tflite, 31348 bytes, 40 tensors)

dense_9/bias f4 [17]
00000000: 91bb 33be eb7b 583e d49b 233f dfdb 663e
00000010: 4f4c 063f 62aa 433f be54 5d3f 0f7f dc3e
00000020: 18ff 9d3e 9a33 b13e 2b55 bebd f9e3 213f
00000030: 2f20 f53e bb4d 31be 89f1 643d 844e 90be
00000040: d56a 15be
-0.1755202 0.21141021 0.6390965 0.22544812 0.5246019 0.7643186 0.8645743 0.43065688
0.30858684 0.3460968 -0.09293588 0.63238484 0.47876117 -0.17314808 0.05589441 -0.28184903
-0.14591534

dense_8/bias f4 [17]
00000000: 08d3 393f dbbb 74bf a099 223e 8a44 8f3f
00000010: 556c db3e 08ff 1c3f ce59 423f 2023 953f
00000020: 1480 523f 9257 a93f 968e 343f feca 1a3f
00000030: 664a de3e f987 6d3d 17eb 0a3e b1bc efbd
00000040: 7184 1b3f
0.72587633 -0.95599145 0.15878916 1.1192791 0.42856088 0.61326647 0.7591828 1.1651344
0.8222668 1.3229849 0.7053007 0.6046599 0.43416137 0.057991 0.13566242 -0.11705912
0.60748965

dense_7/bias f4 [17]
00000000: 5cad 0a3f aa1b 853f 5034 e03f 6fab 723f
00000010: 3fa4 9d3f bffe 9e3f f47d 043f 5dcd 2b3f
00000020: 353b e23e 8d1f 413f 375d 19bf a5ce a03f
00000030: 3832 443f 652a 263f 1503 5abe 3d46 413f
00000040: 8cdf 853f
0.54170775 1.0399067 1.7515965 0.94792837 1.2315749 1.2421492 0.5175469 0.67110234
0.44185796 0.7543877 -0.5990786 1.2563063 0.7663913 0.6490844 -0.21290238 0.754978
1.0458846

dense_6/bias f4 [17]
00000000: 6a98 5b3e 2718 6c3e aad3 083f 88dc 143c
00000010: b3ff 063f 3f8b 003f 44df 2bbf 9101 023f
00000020: 5e09 d03e 8936 e13e c6c0 9b3e 4740 d53e
00000030: 3f9f 38be 10e9 2f3f 12df 533c 37be 233f
00000040: 58c6 343f
0.2144486 0.23056088 0.53447974 0.009085782 0.52733916 0.5021247 -0.6713755 0.5078364
0.40632147 0.4398692 0.30420512 0.41650602 -0.18029498 0.68715 0.012931602 0.6396212
0.7061515

dense_5/bias f4 [17]
00000000: 29d0 72be 8e9e 493e a9c5 b83f 4a7e e13f
00000010: be6e 303f 0018 bcbd 9f01 dd3e 6f97 eebe
00000020: 5e1b 683e 2792 453f 19a9 663f b0ab 75be
00000030: e6bb a43e bd5e a83e cb6d 393e 8b94 68bb
00000040: 0626 583f
-0.2371222 0.1968939 1.4435321 1.7616665 0.6891898 -0.09184265 0.431653 -0.4659991
0.2266669 0.77176136 0.9010177 -0.23991275 0.32174605 0.3288478 0.18108289 -0.003548893
0.8443302

dense_4/bias f4 [17]
00000000: c0eb 1abe 2bac 24be 66d3 a23f a858 273f
00000010: f23d d23f b479 d53f 9033 b53e ca70 ba3f
00000020: 092a 4f3f 1422 823f f051 4b3f 92af 31be
00000030: 7fa3 0c3f 6a96 3c3f 686e 703f de1b 7f3e
00000040: 3573 b23f
-0.15128994 -0.16081302 1.2720764 0.65369654 1.6425154 1.6677766 0.35390902 1.456567
0.80923516 1.016665 0.794219 -0.17352131 0.54936975 0.73667014 0.93918467 0.24912974
1.3941408

dense_3/bias f4 [17]
00000000: 9a5d b03f a7d9 1b3e 2108 eabe b43a 983f
00000010: d05a 473f 9304 123f 7389 9a3e a658 2cbd
00000020: 2bfe bb3f bce1 d13f 6328 823f c110 253f
00000030: 0000 3031 b95d 2f3f ba1b a83f 7393 2dbd
00000040: f2e5 f2be
1.3778565 0.15219747 -0.45709327 1.1892915 0.77872944 0.5703823 0.3018299 -0.04207673
1.4686941 1.6397014 1.0168575 0.6447869 2.561137e-09 0.68502384 1.3133461 -0.042376947
-0.4744106

dense_2/bias f4 [17]
00000000: 28bd 10be 27fc 1b3f 79ae c73e 3ca7 edbe
00000010: ee6f c0be 9d5d 0dbf f8ad 583e 8dcd 0e3f
00000020: 7008 98bf 7d89 dc3e c9ac 4a3e c2de 1c3e
00000030: 83e7 4c3f ccec 983e 8a5e dc3e 398c 8bbd
00000040: 0b66 b43d
-0.14134657 0.6093163 0.390003 -0.46416652 -0.37585396 -0.5522097 0.21160114 0.55782396
-1.1877575 0.43073645 0.19792475 0.1531935 0.8004076 0.29868162 0.43040878 -0.06813855
0.08808526

dense_19/bias f4 [2]
00000000: fdcf 3c3f 05d0 3cbf
0.73754865 -0.7375491

dense_18/bias f4 [17]
00000000: 8502 913f f049 453f fbc3 8d3f 89cd 5e3f
00000010: 1bfd 2d3f 23a2 d03f 987e be3f 2874 803f
00000020: 25d4 4b3e 3243 853f a3b1 b63f 15de 163f
00000030: 0192 f93e ead1 df3e 6d5f 473e 57b0 9e3f
00000040: 1105 203f
1.1328894 0.77065945 1.1075433 0.8703237 0.67964333 1.629948 1.4882383 1.0035448
0.19905145 1.0411131 1.427296 0.5893262 0.48744205 0.4371484 0.19469996 1.2397565
0.6250773

dense_17/bias f4 [17]
00000000: dbd4 183f 0df1 02be ee7e eebd a99d 0c3c
00000010: fb9a d43e da02 f73e 362a 933e fab8 793d
00000020: 6554 9a3e e410 813d 9b9e 523e 6d35 9d3e
00000030: e39f b03e b24d cd3e b345 cc3d 1e17 303e
00000040: 3242 833e
0.5969979 -0.12787266 -0.11645304 0.008582511 0.4152449 0.48244363 0.28743142 0.060967423
0.30142513 0.0630205 0.20568316 0.30704823 0.34496984 0.4009834 0.099742316 0.17196319
0.2563644

dense_16/bias f4 [17]
00000000: b689 18bd 3473 213f 32ff e63d 263c ba3d
00000010: e198 87bc 46c5 1c3f c53c 7c3d 74b3 113e
00000020: b8db 3a3e 7dc5 0a3e c115 20be ad80 d63c
00000030: d842 6d3e c915 843d fcf3 26bd 7e55 4e3d
00000040: 8d9e 093e
-0.037240706 0.6306641 0.112791434 0.09093504 -0.01655239 0.61238515 0.06158139 0.14228612
0.18247879 0.13551898 -0.15633298 0.026184404 0.2317003 0.06449468 -0.040760025 0.0503745
0.13439389

dense_15/bias f4 [17]
00000000: d0f4 213e c530 79be e42f 433d 3529 8abd
00000010: b21b c4bd d531 cfbd d855 fc3e d3d7 cc3c
00000020: 8909 2dbb 56bb 1f3b 1d70 4dbd 5802 48be
00000030: e8cc ae3b 2727 453e 8146 c8bd faf7 d43d
00000040: 5a42 55bd
0.15816045 -0.2433501 0.047653094 -0.06746141 -0.09575595 -0.101169266 0.49284244 0.025005257
-0.0026403388 0.0024373136 -0.050155748 -0.19532144 0.0053344853 0.19253217 -0.097790726 0.1039886
-0.05206523

dense_14/bias f4 [17]
00000000: a763 223f 62fe 0abc 9128 babd e7c0 0dbc
00000010: 89c8 b13e 047e 7bbe 423e a2bd c8b6 dd3d
00000020: 8b60 66bc c2b6 d53e 321a 0ebe 52c0 273e
00000030: d434 063e 142c 673e b4f6 743e e081 68be
00000040: 3171 bd3e
0.6343331 -0.008483501 -0.09089769 -0.0086519485 0.3472331 -0.2455979 -0.07922031 0.108258784
-0.014061104 0.41740996 -0.1387718 0.16381958 0.1310609 0.22575408 0.23922235 -0.22705793
0.3700042

dense_13/bias f4 [17]
00000000: e736 aa3e 18f4 a93e 8ba4 b6bd ed17 91bb
00000010: 99ec 3b3f 261a 413e 7cce 953e f5f4 143e
00000020: 3025 1dbd 02a8 a43e f6bf 1a3e e4e0 773e
00000030: 1cc1 443e deb9 ad3e 9bf2 ce3c c53d 3a3e
00000040: 1d10 48bd
0.33245012 0.3319404 -0.08918103 -0.004427901 0.73407894 0.18857631 0.29259098 0.14546569
-0.038365543 0.3215943 0.1511229 0.24206883 0.1921429 0.33930868 0.025262168 0.18187626
-0.04884349

dense_12/bias f4 [17]
00000000: 7f38 0e3e d02e 12be a6c6 1e3d dbcf a13e
00000010: e414 e43e 84b3 953e dd6d be3e 913f ac3e
00000020: 8822 febd 67b9 883e 7142 083e 12be 0c3e
00000030: b689 043e 94ad 413d d9d1 6b3f e7ee 0ebe
00000040: be93 1d3c
0.13888739 -0.1427567 0.038763665 0.31603894 0.44547188 0.29238522 0.37193194 0.33642247
-0.1240893 0.2670395 0.13306595 0.13744381 0.12943158 0.047284678 0.9211708 -0.13958322
0.009617744

dense_11/bias f4 [17]
00000000: ba7c 0d3f f185 4f3e 2a47 e53e 1436 1d3f
00000010: be86 033e 7d2b d4bc 11d6 2abe 9bf1 173f
00000020: a4ef 273f dd6c 173e 747e 133f 0000 0000
00000030: dbf1 4ebb 1379 e93e 1990 d33e c777 dd3d
00000040: a9f2 893e
0.5526844 0.20265938 0.44780856 0.6141064 0.12844369 -0.025899643 -0.16683222 0.59353036
0.6560004 0.14787622 0.5761483 0.0 -0.0031577263 0.45600185 0.41320875 0.10813861
0.26942948

dense_10/bias f4 [17]
00000000: 455c d03e b1b3 97bc 58c4 fe3d 5ced 043f
00000010: 500d 003f 3a8c 843d 2e61 3a3f 13fe 043e
00000020: 64e2 b23e e0c0 f53e efb8 ff3e 7b80 2c3f
00000030: 23b6 8fbe 77db a33e d653 613e 5056 9d3e
00000040: 0184 893e
0.40695396 -0.0185183 0.12439793 0.5192468 0.50020313 0.064720586 0.72804534 0.12987547
0.34938347 0.47998714 0.4994578 0.67383546 -0.28068647 0.32003376 0.22004637 0.30729914
0.26858523

dense_1/bias f4 [17]
00000000: 3756 95bf 3ef1 d9be f928 9b3f dd61 09c0
00000010: 1da6 933f c5fe 113e 59e5 e8be ec04 3abf
00000020: a10c afbf 19b2 1ebf 6224 d6bf d741 a6be
00000030: 8517 c23e 4a0b 41bf b6e8 e1be 2ae2 9e3f
00000040: 010a d5bf
-1.1666936 -0.42566866 1.2121879 -2.146598 1.1535069 0.14257343 -0.45487478 -0.7266376
-1.3675729 -0.61990505 -1.6729853 -0.32472107 0.3790857 -0.7540785 -0.44122857 1.241277
-1.6643678

dense/bias f4 [17]
00000000: b5d1 023f 117a 5fbe c856 05bf 2cbc 42bf
00000010: af35 c23e 3845 173c 801f 0cbd 79db e0be
00000020: 9fa9 c5be c450 723e 6e9a 27bf 48aa 643e
00000030: 0a93 713e cfc7 d83d a624 e5be 4763 02bf
00000040: 0448 adbd
0.5110124 -0.21823908 -0.5208554 -0.7606838 0.37931582 0.009232812 -0.03420973 -0.43917444
-0.38605973 0.23663622 -0.65470016 0.22330582 0.23591247 0.105849855 -0.44754523 -0.50932735
-0.084610015

sequential/dense/MatMul f4 [17, 17]
00000000: 7031 dabe 29c6 513c e113 293c ef94 813e
00000010: 2787 6cbd d01e 103f e0bd 2bbf c024 7cbf
00000020: 0715 863e ef85 2abd a5c8 0b3f b40c 95be
00000030: 23a4 fc3c a3de 86be 8535 4b3e dbd9 4bbf
00000040: 4399 783e 2f8d dc3d d122 5f3e 41ac dcbd
00000050: 6b6f e53e 0da4 213d 36c4 103e 322c 053f
00000060: 6cbc 32bf 7a87 6cc0 5efc 2b3d e64a 2cbe
00000070: 5936 d63e 6292 38be b9e3 2f3e 6ae7 e1be
00000080: c75e d7be b489 ce3d 7145 efbd bafc 323e
00000090: d860 3f3e 8bb1 f0be 0e47 393f 7076 cabd
000000a0: 2cbf 86be 6c02 8a3f d1a5 b03e ad5b 8d3e
000000b0: 482a 513e 45e1 e53e c1e5 e6be 9970 d7be
000000c0: 1734 343f 3e33 e6be 70b4 4e3d 71de 413e
000000d0: 89ab 61bf 7ec8 20bf 077f e83e ee80 903e
000000e0: cf05 733f a90a ff3f 34f0 c03f e270 e3bf
000000f0: f6b1 4ebe 8796 fabf 3f44 29bf 610b 9cbf
00000100: 9a13 263f 3421 b33f 19aa 8dbf 0253 073f
00000110: 278a 863e 13a2 d83e 5972 02bf d663 15bf
00000120: 5033 a83e 75eb eebe 461f 3dbe e2eb 0f3f
00000130: 4bac 6e3f a8b5 6d3d 670d 2cbf 05c8 a43d
00000140: 6411 2bbe 7e30 983e 4a2e 4fbd 1b76 6d3f
00000150: 6b6c 5bbf 7d02 2abf a6d7 d73d 743d ff3e
00000160: d0dd 10bd 8302 a3be c619 a63e 425e a6be
00000170: 0928 b0be e840 2bc0 3a8b ba3e d88b 03bc
00000180: 8339 84be e713 253e 4893 4abe f37b 733e
00000190: 3294 0fbd 209e 713c d299 03be 2ec0 a6bb
000001a0: 81c0 093f 93f1 1ebe 2539 83be 8c4f 17bf
000001b0: 75a8 9e3e 33db 293e be2e b8bf f636 0d3f
000001c0: 7f67 56bf d6e4 bb3d 72f9 883b c794 bbbd
000001d0: 2813 0bbe 3896 db3d c09e cdbe 0188 53bc
000001e0: f6ea eebc 06bd 8ebc f6f4 4f3e 6e58 603e
000001f0: d9d3 0d3e 421b 663e 8d75 d3be b8d3 e33e
00000200: 00dc 083f c1b2 7e3e e4a8 873d 0c9b f43b
00000210: 465c c1bc 8414 c5be be45 1abf 6583 53bf
00000220: 51ff 2dbf 4403 e03e 6df2 873d c925 95bd
00000230: 9c85 89bf e9a8 afbf 0fcf 0bbf d44c 5dbf
00000240: fc3d cf3e 9909 703e 5750 65bf d8c3 af3d
00000250: 76cb 8f3e 24a1 853d 06f4 f9bd 4db6 053e
00000260: 7e3a 043f a7c1 433f 7d32 0ebf 2dec d03e
00000270: 5985 adbd 6849 053f 249e e9bd a2cc 73bd
00000280: 2cf4 0b3f b5f8 1ec0 cd82 0a3f 7a6c 77bf
00000290: 0970 96be c433 853e 11ef c8be 8ec2 b6be
000002a0: 2c36 10bf 18f4 9a3e 4337 183e 2180 ddbe
000002b0: cbad 0a3e a46a 583d 5988 9c3d b52b ff3b
000002c0: 1847 283f 6782 903e 9195 ce3e eceb 3abd
000002d0: b368 f73e da4c a3be 5f63 19bd c4b6 e6be
000002e0: 81e9 a23e 08bd 703e cb2c 7abe 85dc 003e
000002f0: 2f84 b03e 380d a6be 3a1f c43e f615 f4be
00000300: c140 473e 11af 33be fbc8 7fbe 38d6 2abe
00000310: 0d6b 0c3e 1d17 c53f 0900 6c3d bd5b 8fbd
00000320: b0c0 55bc 23b1 abbe 2379 003c ce3e 623e
00000330: d1da 3f3e 55f5 473f 09a2 babe ecd0 e83d
00000340: 45e7 98bd 9a1c ccbd 19e8 623e 3cf6 733d
00000350: 7dba a93e daf8 c1be 2947 793d 4c3b 543e
00000360: 4172 e6bc 4450 cf3c 1d83 c3bd 467b 603d
00000370: f076 a3be 1d13 c23e ccfd 29bf f536 4b3f
00000380: 639d 3d3f c0bf 9a3c 85ad 8ebe 1701 43bd
00000390: c74d 3bbf c5d4 a03f fb7e 463e 7a45 1fbf
000003a0: 5aeb 473e f6fc 0cbe bd35 a43e 8b27 09bf
000003b0: 02da 033f fa7b 11bd 12b8 623d c05c 6fbe
000003c0: 6b9b a43d a9e9 58bd d485 a53d 25b4 a3bd
000003d0: e6fa 14be 7aa2 f4bd 955e 9c3e 86fa 253f
000003e0: 04ea f73d 47e1 20be 12fa 993e 7f7d 5cbd
000003f0: e4bf 0ebf 952b 3a3e 9b6f 87be 9c18 7cbe
-0.42615843 0.012803593 0.010319681 0.2530894 -0.05774608 0.56297016 -0.670866 -0.98493576
0.26187918 -0.041631635 0.54603034 -0.29111254 0.030839985 -0.26341733 0.19844635 -0.79629296
0.24277215 0.10769116 0.21790625 -0.10775042 0.44811568 0.03946309 0.14137349 0.5202056
-0.6981876 -3.6957688 0.041988723 -0.16825446 0.4183834 -0.1802459 0.17176713 -0.44121867
-0.42064497 0.100848585 -0.11683167 0.1747922 0.18689287 -0.47010455 0.72374046 -0.098858714
-0.26317728 1.0781989 0.34501508 0.27609006 0.20426285 0.4489843 -0.45097163 -0.42078093
0.7039198 -0.4496097 0.050465047 0.18932511 -0.88152367 -0.62805927 0.45409414 0.28223366
0.9493074 1.9925128 1.5073304 -1.7768824 -0.20185074 -1.9577187 -0.6611976 -1.2190973
0.6487366 1.3994508 -1.1067535 0.52861035 0.26277277 0.42311153 -0.5095573 -0.5835546
0.32851648 -0.46664014 -0.18468961 0.56219304 0.9323165 0.05803457 -0.6720795 0.08045963
-0.16705853 0.29724497 -0.050581254 0.9275834 -0.8571231 -0.66410047 0.105391786 0.49851573
-0.035367787 -0.31837854 0.3244154 -0.32493788 -0.34405544 -2.6758366 0.36434346 -0.008028947
-0.25825128 0.16120873 -0.19782746 0.23777752 -0.03505344 0.014747173 -0.12851647 -0.0050888276
0.5380936 -0.15521841 -0.25629535 -0.59105754 0.30987898 0.16587524 -1.4389265 0.5516199
-0.8375167 0.09174506 0.004180127 -0.091592364 -0.13581526 0.10722011 -0.4016018 -0.012910844
-0.029164772 -0.017424118 0.20308289 0.21908733 0.13850345 0.22471336 -0.41300622 0.44497466
0.53460693 0.24872877 0.0662401 0.007464772 -0.02360357 -0.38492215 -0.6026267 -0.8262237
-0.67967707 0.4375249 0.06638036 -0.072825976 -1.0743899 -1.3723422 -0.5461282 -0.86445355
0.40476978 0.23441161 -0.89575714 0.08582276 0.28084916 0.06524876 -0.12204747 0.13057823
0.5165175 0.76467365 -0.5554579 0.40805188 -0.084727 0.52065134 -0.11407116 -0.059521325
0.5466945 -2.4839299 0.54105836 -0.966499 -0.2938235 0.26016057 -0.39244893 -0.35695308
-0.5633266 0.30264354 0.1486483 -0.43261817 0.1354286 0.052836075 0.07643194 0.0077871927
0.6573348 0.2822449 0.40348485 -0.04563515 0.48322067 -0.3189457 -0.037448283 -0.45061314
0.31818774 0.2350961 -0.2443115 0.12584122 0.34475848 -0.3243196 0.38305074 -0.47673005
0.19458295 -0.17547251 -0.24979012 -0.1668328 0.13712712 1.5397679 0.05761722 -0.069999196
-0.013046429 -0.33533582 0.007841381 0.2209427 0.18735816 0.7810872 -0.36451748 0.11367974
-0.07465986 -0.09966393 0.2215885 0.059561 0.33150092 -0.3788517 0.06085888 0.20725745
-0.028130652 0.025306828 -0.09546492 0.054805063 -0.3192668 0.37905207 -0.6640289 0.7938073
0.7406828 0.018890262 -0.2786676 -0.04760846 -0.73165554 1.2564932 0.19384377 -0.6221539
0.19523373 -0.13768372 0.3207225 -0.5357596 0.5150453 -0.035518624 0.055351324 -0.23375225
0.08037456 -0.05295721 0.08082166 -0.07993344 -0.14548835 -0.119450524 0.3054091 0.64835393
0.12105182 -0.15710936 0.300736 -0.05383062 -0.5576155 0.18180688 -0.26452336 -0.24618763

sequential/dense_1/MatMul f4 [17, 17]
00000000: 7af0 e03d 5e1a 10bf c938 f43e 83d3 053e
00000010: b174 073f 440d 7e3e 5585 203f e1d8 9dbd
00000020: ef16 4c3f b8ea 48bf 7b4f 3c3f dc09 213f
00000030: 3ab3 a9bd be8d 053d 1b16 733f 3ba8 6d3f
00000040: 0d96 90bd 3857 3fbe 0600 823f b2e3 80bd
00000050: 7277 0a3f 4bb9 873e 6a8c aa3e fe38 553f
00000060: a086 33bf 490a 8b3d 5566 273f 8b41 c9bf
00000070: bb4d 503e 5332 89be cd2f 773e 9b74 e8be
00000080: e318 62bd 1a23 d13d 6501 693f 444a 67bf
00000090: 585d 11bf f841 0cbe 688d 85be 24be bcbe
000000a0: 0c8f 08be 4fb3 fd3e d37f 793c e6b2 9dbe
000000b0: 0842 813f f238 ebbd af3f 893f e329 723f
000000c0: 73db 9c3e d200 0fbe 0799 72bd 7dd9 83bf
000000d0: 02a3 8c3f 9025 33bf d30a 2e3f cce8 413e
000000e0: 6bb1 84bd 1411 04bf c2a4 0f3f 6e15 423f
000000f0: d965 473f 51ac d33f f881 153f d959 623e
00000100: 6e3e 5ebf 210c f33e 482f c63e 1f7c 84bd
00000110: 208b 9abe 745c 6b3f af5b 563f 0568 433f
00000120: 1738 00bd a108 d0bd eb08 e03e 5bd0 ba3d
00000130: 4c7b c1bd 6719 2a3f 4fc3 06bd 9e56 82be
00000140: 38de b53e 523e 66be 210e 603f 9edb df3e
00000150: 2fdd fdbe e85d fbbe b140 943f 6c4e 84be
00000160: 4a09 17bf 06e3 b7be 13df 323f 1830 e2be
00000170: 53f6 343e d829 03c0 ea02 88bd 182d adbe
00000180: aeb1 ea3e 2048 f63e 24f5 d83e 86a3 31be
00000190: 5aa7 193e 3053 703f 521e ff3e e684 2cbe
000001a0: 4fd7 cd3e 0103 0ebf ee7d 53bf c62b c93e
000001b0: 40f1 b8bf 849b 543f 1574 073d f22c babe
000001c0: cde4 d43f 0929 0cbf 30f3 aa3d 7bd4 f7be
000001d0: 58cf 423f b507 803e 4838 413f c328 07c0
000001e0: 2393 713f 2d64 413f 8aff 393f f494 063d
000001f0: 45bf a73e f908 89bf 5847 033d cc54 c6be
00000200: 14ce d73e 79a8 bd3e 2024 5f3f a76e c1be
00000210: 05e3 a83e a2ea 743f f8b9 1b3f 6453 a1be
00000220: 438e a5be 413e b83e 869a cd3e 12da 0abe
00000230: 5af1 54bf b369 f13e 99e6 303e ec5e 033f
00000240: 6cc3 823e a221 1dbf a712 113f 4c8f 413f
00000250: 5ac1 a4bd 6638 273e 85da 8f3f d192 523e
00000260: 36a1 3e3d 0a9e 953e c5d6 5bbf d90a 3d3f
00000270: 0858 9bbe dc48 73be 0a10 d83d 8afe 28bf
00000280: cddc 883e e50d a73f 04ef 0bbf 9e78 e33e
00000290: e3e0 0c3f 4601 07bf 5e58 d8bc 0738 3f3f
000002a0: e437 c43d 2e8b 173e 3ec2 fdbe 1055 bd3f
000002b0: 12a8 873f 967e 523f ac96 713f 2432 ab3f
000002c0: e2b7 673f 9d9a c1be 5076 373f 286a 133e
000002d0: da76 553f 4cd8 a2be c4e4 5dbf 05fb 30bf
000002e0: 69d6 74be 851c 303f ed6b 39be 7abe 85bf
000002f0: a0f1 ce3e 4eb8 893e 8ea3 953d 7fe7 aa3e
00000300: 2ef3 2f3e 9b08 0b3f 19ab 0cbf 45e6 163e
00000310: 939b 743e a0eb 643f 3a93 bf3e 6329 463e
00000320: 3924 60be 0b4f 89bd a9be 6a3f a8da 253e
00000330: 8e4c 393f 59c1 40bf f596 953d 8d9e 25be
00000340: a1a5 13be c829 ddbe 3621 8e3d 9978 743f
00000350: 8d02 423f c134 90bf 7b7f 3f3f 7455 05bf
00000360: 2376 f43d b3ab 14be 2772 c03f 848a 8dbe
00000370: d9a9 053f 4a93 8cbf 7d1f 823f 04df 403d
00000380: e79b 563f 42e4 103f 440c 313f 14d6 433f
00000390: 92a9 90be 8731 3f3f 98a8 dfbc bcb2 fb3e
000003a0: 6a38 8a3f b7a3 3ebf d7c4 b0bf 86d9 97be
000003b0: 2011 3a3f b6f1 163d f7bb 28bf 8c7d 16be
000003c0: ff0a 013f 9b54 8e3d f2a2 773e 3c36 d03f
000003d0: 4c65 86bf 4056 12be f02d 23be 0167 e9be
000003e0: d984 dcbd 8cd4 603f 3cff 6bbf 9cae 52be
000003f0: 0348 153f 579f 073f cb36 343e a598 663e
0.10983367 -0.56290233 0.47699574 0.13068967 0.5291243 0.24809748 0.6270345 -0.07707382
0.79722494 -0.7848315 0.7355878 0.6290567 -0.08286138 0.03260588 0.94955605 0.92834824
-0.0705987 -0.18685615 1.0156257 -0.062934294 0.5408851 0.26508555 0.33310252 0.8329009
-0.70127296 0.06789071 0.6539052 -1.5723127 0.20342152 -0.26796207 0.24139328 -0.45401463
-0.055199515 0.10211773 0.9101775 -0.90347695 -0.56783056 -0.1369704 -0.26084447 -0.36863816
-0.13335818 0.49550864 0.01522823 -0.3080055 1.0098276 -0.11485471 1.072256 0.94595164
0.30636176 -0.13965157 -0.05922797 -1.0300747 1.0987246 -0.6997919 0.67985266 0.18936461
-0.06479152 -0.5158856 0.56110775 0.7581395 0.7788978 1.6536962 0.5840144 0.22104587
-0.8681401 0.4747019 0.38707948 -0.06468987 -0.3018427 0.9193795 0.8373365 0.76330596
-0.03130349 -0.10157896 0.43756804 0.09121772 -0.09447345 0.6644501 -0.032901105 -0.2545671
0.35521102 -0.22484711 0.8752156 0.43722242 -0.49582812 -0.49095082 1.1582242 -0.2584108
-0.5899855 -0.35915393 0.69871634 -0.44177318 0.1767209 -2.049429 -0.06641181 -0.33823466
0.45838684 0.48101902 0.42374527 -0.17347535 0.15005246 0.93876934 0.4982782 -0.16847572
0.4020333 -0.55473334 -0.8261403 0.3929121 -1.4448624 0.830498 0.03306969 -0.36362416
1.6632324 -0.54750115 0.083471656 -0.48404297 0.7609763 0.2500588 0.75476503 -2.111863
0.9436514 0.7554348 0.72655547 0.032856897 0.32763115 -1.0705863 0.03205046 -0.3873657
0.42149413 0.37042597 0.871645 -0.37779734 0.32985702 0.9567052 0.6083064 -0.31508934
-0.323351 0.35984996 0.40156955 -0.1355975 -0.83180773 0.47150955 0.17275466 0.51316714
0.2553972 -0.61379445 0.56669086 0.7560928 -0.080446914 0.16330108 1.1238562 0.20563819
0.04654046 0.29222137 -0.8587459 0.7384468 -0.303406 -0.23758262 0.10549934 -0.66013396
0.26730958 1.3051115 -0.54661584 0.4442796 0.5503065 -0.5273632 -0.026409324 0.74694866
0.09580973 0.14799187 -0.49562258 1.4791584 1.0598166 0.82224405 0.9437053 1.3374677
0.9051496 -0.37813273 0.71664906 0.14395964 0.8338448 -0.31805646 -0.86677194 -0.69133025
-0.23909916 0.6879352 -0.18107577 -1.0448754 0.4041872 0.26898426 0.07306586 0.33379743
0.1718261 0.54310006 -0.54948574 0.14736278 0.23887472 0.89422035 0.37417012 0.19351725
-0.21888818 -0.067045294 0.91697174 0.16196692 0.7238244 -0.75295025 0.073041834 -0.16173764
-0.14418651 -0.4319594 0.06939928 0.9549652 0.7578514 -1.1266099 0.74803895 -0.52083516
0.11936595 -0.14518623 1.5034837 -0.27644742 0.5221229 -1.0982449 1.016586 0.047087684
0.8383164 0.56598294 0.6915934 0.7649853 -0.28254372 0.7468495 -0.027302071 0.491598
1.0798466 -0.7446856 -1.3810071 -0.29658145 0.7268238 0.036851607 -0.6591181 -0.1469633
0.50407404 0.06949731 0.24183252 1.6266551 -1.0499663 -0.14290714 -0.15935493 -0.45586398
-0.10767526 0.8782432 -0.9218633 -0.2057442 0.58313006 0.5297751 0.17599027 0.22519167

sequential/dense_2/MatMul f4 [17, 17]
00000000: 37c1 d53f 0de6 8b3e 1538 e23e e991 b13f
00000010: 4db2 183f 598c 0b3e 7a87 e03f 4a81 4bbf
00000020: 42dd 453e 7de2 c23f 185e 1d3e 26f8 f23e
00000030: b56b 8f3f b822 35bf 6c88 dabf b6ed e13e
00000040: aac6 513f e86d 1040 16c5 ff3e a347 b43f
00000050: 2827 2f3f 7d18 0340 92e8 5b3f 7b29 673f
00000060: 2ac8 3f3f 85a5 f73f b048 da3f b947 343f
00000070: 2802 a53f 57c8 e93f 0376 433f 7bd8 453f
00000080: cef7 963f 6e97 b83e d246 213e b165 4f3e
00000090: 92af 763f 4e1c 6e3f b81d 513f 61de f43e
000000a0: 10f6 753e 4f61 ac3f 74cf ed3c d487 863e
000000b0: 7e54 153e 217f e33e dc07 4d3f ce8c d73e
000000c0: ea24 9bbe c3f2 6f3f c137 5b3f d294 04be
000000d0: 318b 223f 8464 8bbf 3dd8 49be bace 73be
000000e0: bfa2 353e c936 61be 06d2 6b3c 7f2a d53e
000000f0: a4a4 203f e454 6e3f 7f74 60be 10da 963f
00000100: 3a70 c73e ed9a d2be 7561 543e 7c27 193f
00000110: 6e46 90be 7a15 983f b5ed 733e 15f0 493e
00000120: 2233 15bf 4162 0a3f fb4c a2be 6779 153f
00000130: a703 5e3f c273 95bd eeef 193f b07f 273e
00000140: 408f 0ebe 38db 4bbc 6c86 66bf 9d11 fd3e
00000150: 5e1a 063f cfb9 f5bd 6eff e33e c203 2abe
00000160: 0638 2a3f 01f7 61bf 0f8d 22be c54d 6a3f
00000170: 3665 64bf c3c8 5e3d 3a57 37bd 19d8 0a3f
00000180: 527b 953e 5bdd 293f 047c db3e 6aa5 1cbe
00000190: 3e86 823d 594c 6a3f 29d0 bc3f 96b0 29bf
000001a0: 19e3 1a3f 85c6 db3e 2844 6d3f 6d9d 813f
000001b0: 9bf7 0a3f 9794 793f 00aa 2d3f 2924 a03f
000001c0: 1f99 ad3f 5393 5dbe 15ec 9a3f cbd0 0840
000001d0: df26 1f40 1ba8 7b3f 6362 753f 78ec 923f
000001e0: 3645 78be 26cd 893e 7653 11bf 9503 0d3e
000001f0: b09f f6be 829c 6e3e f6bd 59be 840b 1b3f
00000200: 1c26 603f bc27 5abb 1af7 f43e 4aef 643f
00000210: 5c00 57bf 1b1d aabf 958d ba3e 8dd4 cb3d
00000220: 10f0 9cbe 2bfd b13f 37b9 05c0 1a62 443f
00000230: d739 07c0 dbce 27bd cb91 853f 1cc8 953f
00000240: 7867 9e3f f061 cd3f 9aa9 2f3e b7d3 e23f
00000250: d9cb 6c3f b8f7 093e a098 2e40 0055 25c0
00000260: 03c2 cc3f e1df 5a3d 2b93 7e3f be40 dbbf
00000270: 6f00 033f 005d 42bf b20b 573e 2cda b53e
00000280: 80fb 98bd e36a cf3b 0907 70bf 8d9b 163e
00000290: 1bfa 033d 57c5 213f 4d3a 0a3f 354f 8f3f
000002a0: 3c21 053d faaa ae3e 768d fabe 53bb 8f3e
000002b0: 1228 58bf 3f93 4b3f 21ba c4bf 5067 aa3e
000002c0: 5814 d8bc 5975 873f 2677 ea3e 62e3 af3f
000002d0: 6aca 063f 1361 fa3e 2b1e bd3c 5111 063f
000002e0: 9f04 783f 42c0 06bf b54d 4e3f 0bfd 70bf
000002f0: 9341 ae3e 6377 d4be 037f cb3f d39e b1bf
00000300: 3796 603e bb7c d1bd 4c2b d43e 7749 2c3f
00000310: f58a a53f 22a9 ac3e b93d 7dbc 0fc8 1d3f
00000320: 1523 b33e 350c 28be 55b9 a8be 0a17 3e3f
00000330: 878b 59be d17f 533f 0eda 70bf 971f d53c
00000340: ff2b 13bf d6ca 623e 0f6d 123d cceb a93e
00000350: 17ec 77bd 1d76 b8be f978 cc3e 94e0 32bd
00000360: 6dd5 803d a18e b73e 800c 853f a2ee 09be
00000370: aafd 3fbe 3558 1bbf 9d84 c63e 93c3 d63d
00000380: 0303 593f 4b0d dbbe 028e f2be 8c4f e73e
00000390: 62a5 583f d9b9 7f3f 66f0 d7be 6738 793e
000003a0: 885f 5c3f 2f81 a2bf 4996 193f 964c 593f
000003b0: ab2b 2cbf 380d ed3e b83f 32bf 74ca 613f
000003c0: 5ae9 493e a03c b23f 3f05 643d 8ec2 81bd
000003d0: cba0 65be 65cd f03c b650 94bf 5f2e 25be
000003e0: 181d 93bf f14d 983f cd4b b73e dc7a 233e
000003f0: dc18 35bf 4e57 02bf 13fd bc3e 2ed5 9a3e
1.669959 0.27323952 0.44183412 1.3872653 0.59647065 0.13627757 1.7541344 -0.79494154
0.19322684 1.5225369 0.15367925 0.47454947 1.1204745 -0.707561 -1.7072883 0.44126672
0.8194376 2.2567081 0.49955052 1.4084362 0.6841912 2.0483696 0.8590175 0.9029767
0.749148 1.9347388 1.7053432 0.7042194 1.2891283 1.8264264 0.76351947 0.7728345
1.1794374 0.36053032 0.15749672 0.20253636 0.9636165 0.9301194 0.8168597 0.47825912
0.24019647 1.3467196 0.029029585 0.26275504 0.14583012 0.4443293 0.8009012 0.42099613
-0.303016 0.937298 0.8563195 -0.12947395 0.6349364 -1.089005 -0.19711395 -0.23809329
0.17737864 -0.21993555 0.014393335 0.41633984 0.6275122 0.9309828 -0.2191944 1.1785297
0.3895281 -0.41133824 0.20740302 0.59825873 -0.28178734 1.1881554 0.23821147 0.1972049
-0.5828115 0.54056174 -0.31699356 0.5838837 0.86724323 -0.0729747 0.6013173 0.16357303
-0.13921833 -0.012442403 -0.9004886 0.494275 0.52383983 -0.11998331 0.44530815 -0.16602996
0.66491735 -0.88267523 -0.15874122 0.91524917 -0.89216936 0.05439068 -0.04476092 0.5423599
0.29195648 0.66353387 0.42868054 -0.15297475 0.06373261 0.9152275 1.4751025 -0.66285074
0.60502774 0.42924896 0.92682123 1.0126168 0.54284066 0.97492355 0.67837524 1.2511035
1.3562354 -0.21638231 1.2103297 2.1377437 2.4867475 0.98303384 0.9585325 1.1478415
-0.24245152 0.26914328 -0.56767976 0.13770898 -0.48168707 0.2330189 -0.2126387 0.60564446
0.8755815 -0.0033287844 0.47844774 0.89427626 -0.83984923 -1.3290132 0.36436144 0.0995265
-0.30651903 1.3905386 -2.0894296 0.7671219 -2.1129053 -0.040968757 1.0435117 1.1701694
1.2375326 1.6045513 0.17154542 1.772086 0.92498547 0.13473403 2.7280655 -2.583313
1.5996708 0.053436164 0.9944331 -1.7129133 0.51172537 -0.75923157 0.21000555 0.35518014
-0.07469845 0.0063298806 -0.93760735 0.14707775 0.03222094 0.6319174 0.5399521 1.1196047
0.032502398 0.3411482 -0.4893605 0.28072605 -0.8443614 0.79521555 -1.5369302 0.33281946
-0.026376888 1.0582687 0.45794028 1.3741267 0.5265261 0.48902187 0.023085674 0.5237017
0.9688205 -0.5263711 0.8058732 -0.9413611 0.34034404 -0.41497335 1.5898136 -1.3876594
0.21932302 -0.102288686 0.41439283 0.672996 1.2933031 0.33722788 -0.01545661 0.6163339
0.34987703 -0.16410907 -0.32953897 0.74253905 -0.21244632 0.8261691 -0.94082725 0.02601604
-0.5748901 0.22147688 0.035748538 0.3318771 -0.060527887 -0.36027613 0.39936045 -0.043671206
0.06290708 0.35851005 1.039444 -0.13469937 -0.18749109 -0.6068147 0.3877305 0.104865216
0.8477022 -0.4278358 -0.47373968 0.45177877 0.84627354 0.99892956 -0.42175597 0.24337922
0.8608327 -1.2695674 0.5999494 0.84882486 -0.6725413 0.46299148 -0.6962848 0.88199544
0.19717923 1.3924751 0.055669066 -0.063359365 -0.22424619 0.029394815 -1.1587131 -0.1613097
-1.1493254 1.1898786 0.3580002 0.15964836 -0.7074106 -0.50914466 0.3691183 0.30240768

sequential/dense_3/MatMul f4 [17, 17]
00000000: 494d dfbf da2a 88be 8d9f 4fbf f497 f83f
00000010: 3689 a23f dc2e f63f 763f aabd 2eb8 e43e
00000020: 0675 3040 fc82 843f 4200 fd3f b504 123f
00000030: 6ed4 903f 2322 fb3e 77bc 963f 08c1 933e
00000040: e9bf ae3f d964 b13f 156c 5a3f 58ec 943e
00000050: ad91 173f 7bfc 1d3f d9a5 c93d 60b5 743f
00000060: 8d25 463f a38a d8bf e34d 5f3f 938e c03b
00000070: 333c f23e f0e2 69be 228d a53f 0a7e 8e3e
00000080: eee6 6d3f 06be c4be 349d 8f3f 9483 ac3e
00000090: 6279 123f 4cf5 1b40 4170 3fbf c4ea e03f
000000a0: 78b5 be3f ffb0 993c c69f 1540 c2cf 9a3f
000000b0: 5480 4040 52d8 393f c7df dd3f 2b00 afbf
000000c0: e3bd a6bf 63ed 7a3e 9e78 8c3f b38e 64bf
000000d0: 7d16 dbbe b525 65bf d40e 8b3f 9fc2 703f
000000e0: b510 e13f 0c04 70bf 37be a53f d842 fb3f
000000f0: f2cd d63f e83e 4840 b2b1 433f f648 c13f
00000100: eaef 7a3f f6a7 fb3f 19ca 4c3f 78b0 ca3f
00000110: f79f 92be 4049 883e cb9a 83be 2a4b 01bf
00000120: e2bd f6be 4674 213f b837 1cbf 8a53 853f
00000130: c76a 2340 fb6e 7b3f 5565 683f f417 d33f
00000140: ace6 8b3f fc66 1f3f a412 5c3f 81f4 013f
00000150: efee 8f3f a473 a43f 0665 493f 3d78 ba3f
00000160: 85b8 433f a02b 373f 8b17 d83f 5790 b63f
00000170: 717a 6c3f 3ae7 d7bf 8a2b fabd 6aec 323f
00000180: 43e7 753f 2d08 483f dad2 e63f 7623 f83f
00000190: 4d2c 1b3f 78c2 893f ea4b 233f 653a 153e
000001a0: b3ef 04be 263c 653f 872a 013f 0e3f 9a3f
000001b0: 624f 7ebf 85c4 033f 1efe 7f40 24e9 533e
000001c0: 0d34 873f c20a 983f 1fcf debd 604d 6d3f
000001d0: 019b cf3e 765a d43e ae06 28bf b922 223c
000001e0: 8acd 273e 893e bdbe 7928 703f 2392 6bbe
000001f0: 0ce8 163f f27f 2b3e 7028 313f 8bbe a2bf
00000200: 2601 a1bf 97be 9dbf 8df6 e6be 90ad 92bf
00000210: e1bb a0be fece 1abf 8b84 e53e 0e7f 96bf
00000220: 1c9f e7be 1629 a2bf 08c3 92bf 65f2 0640
00000230: 34ad e93f c0e1 2d40 08e8 8abf 865d f53f
00000240: 3d8a 5640 767a db3f cb97 5740 7156 bf3f
00000250: e168 e23f 8cfc 0140 87c7 1c40 0724 423f
00000260: f3d8 0140 80a2 04bf 6e46 04be 6466 99be
00000270: 0e4f 8e3e 4b3a e43e 125a 983e b2a9 bc3e
00000280: 1617 24bf 87aa b63f 1909 bd3f 14f8 703f
00000290: 59dc a43f bc19 a33f 3492 833e 2705 d4bc
000002a0: 627c c43e 2536 8e3f 6ed1 1cbf 3fbf 98bf
000002b0: 1b93 76bf ab97 d33f ed62 a13f 6d5e 4140
000002c0: 043b 51bf d189 d03f f955 4240 ff19 e33f
000002d0: e2b2 5b40 5d1e 0840 969f 853f 5c0a fa3f
000002e0: 4cfd 3640 8123 7e3f 2073 d63f ac04 febe
000002f0: d1a4 2fbf 03cd 6fbf 484b be3f 4cfb cf3f
00000300: 2932 0940 90ad 42bf f373 c33f eeee 5240
00000310: d190 9f3f 364c 3140 b744 5e3f 13c8 a53f
00000320: cdea 123f 76b4 f23f edfd 2f3f 3326 df3f
00000330: 0255 bebe 549a 96be 9b35 c83e 7062 9bbd
00000340: d676 cfbe bb15 b6be 5e6c a2be cffa 32bd
00000350: bf7f a03e d69b a3be 888a 7abd 62a6 613e
00000360: 002a 953d 05c9 633e 5859 58be 3bc6 b5be
00000370: 22c4 a9be 4f2a dfbe f545 f2be 2fa1 8dbe
00000380: 3880 193f dfb9 913f bb66 843f 0b1b 40bf
00000390: cde4 933f ba15 5440 b7a3 8a3f 215a aa3f
000003a0: 90ad 1f3e e9ec 853e adcd ebbd baf2 7a3f
000003b0: 274e f23d f3ac b83f 6ed9 5dbf 0aa0 8bbf
000003c0: e834 35bf e564 c53f 3c49 c93f 5d09 db3f
000003d0: 432b d4be d5bb c43f b287 3c40 53a0 903f
000003e0: b774 4840 1dcc 873f e3c6 a23f fbce a13f
000003f0: 694a ef3f 926c 5d3f 929e a33f 3ec8 583f
-1.744546 -0.26595193 -0.8110283 1.9421372 1.2698123 1.923305 -0.083128855 0.44671768
2.7571425 1.0352473 1.9765704 0.5703843 1.1314828 0.49049482 1.1776265 0.2885821
1.3652316 1.3858901 0.8532117 0.29086566 0.5920666 0.6171338 0.09846086 0.95589256
0.7740105 -1.6917309 0.8722822 0.005876371 0.47311553 -0.22840476 1.2933695 0.27830535
0.92930496 -0.38426226 1.121985 0.33694136 0.57216465 2.4368467 -0.7478066 1.7571645
1.489913 0.018761156 2.3378768 1.2094653 3.0078325 0.72595704 1.7333916 -1.3671926
-1.3026699 0.24504618 1.097431 -0.8928024 -0.42790595 -0.8951066 1.08639 0.9404697
1.7583224 -0.93756175 1.2948674 1.9629774 1.67816 3.1288395 0.76443017 1.5100391
0.9802233 1.9660633 0.79995877 1.5835104 -0.28637668 0.26618385 -0.25704035 -0.50505316
-0.48191744 0.63068044 -0.6102252 1.0416119 2.5533922 0.9821622 0.9077962 1.6491685
1.092977 0.62266517 0.85965943 0.5076371 1.1244792 1.2847791 0.78669775 1.4567944
0.7645343 0.7155094 1.6882185 1.4262799 0.9237433 -1.686744 -0.12215336 0.6989199
0.96056 0.78137475 1.8033097 1.9385822 0.6061447 1.0762472 0.6378771 0.14573057
-0.12982063 0.89544904 0.50455517 1.2050493 -0.9933988 0.5147174 3.999885 0.20694405
1.056276 1.1878283 -0.10879349 0.9269619 0.40547946 0.41475266 -0.6563519 0.009895974
0.16387 -0.36961773 0.93811756 -0.23004965 0.58947825 0.16748026 0.6920233 -1.2714399
-1.2578475 -1.2323788 -0.45109978 -1.1459217 -0.3139334 -0.60472095 0.44827685 -1.1757524
-0.45238578 -1.2668788 -1.1465769 2.1085446 1.8255982 2.7169037 -1.085206 1.9169166
3.3521874 1.7146747 3.3686397 1.4948255 1.7688257 2.0310392 2.4496782 0.75836223
2.0288665 -0.51810455 -0.12917492 -0.2996093 0.2779469 0.44575724 0.29756218 0.36848217
-0.64097726 1.4270791 1.4768401 0.9412854 1.2879745 1.2742229 0.25697482 -0.025881363
0.38376147 1.1110274 -0.61257064 -1.1933364 -0.96318215 1.653066 1.2608315 3.0213883
-0.81730676 1.6292058 3.0364974 1.7742308 3.4327931 2.1268532 1.0439327 1.9534411
2.85921 0.99272925 1.6753883 -0.4961294 -0.68610865 -0.936722 1.4866724 1.6248565
2.1436865 -0.76046085 1.526976 3.295833 1.246607 2.7702765 0.868236 1.2951683
0.5738953 1.8961322 0.68746835 1.7433532 -0.3717423 -0.29414618 0.39103398 -0.07587135
-0.40520352 -0.35563454 -0.31723303 -0.04369622 0.31347463 -0.3195483 -0.06116727 0.22036126
0.072834015 0.22244652 -0.21127832 -0.355028 -0.3315745 -0.43586966 -0.47318998 -0.27662036
0.5996127 1.1384848 1.0343851 -0.75041264 1.15542 3.313826 1.0831212 1.3308755
0.15593553 0.2615731 -0.11513839 0.9802662 0.118313126 1.442778 -0.86659896 -1.0908215
-0.70783854 1.5421416 1.5725474 1.7112232 -0.41439256 1.5369822 2.9457822 1.1298927
3.1321237 1.0609165 1.2716945 1.264129 1.8694583 0.8649379 1.2782767 0.84680545

sequential/dense_4/MatMul f4 [17, 17]
00000000: b2fa 98bc a843 c03d 685b 94be e2b4 183e
00000010: ccac 003d 76d3 aabd 37d3 1d3e e23f bbbe
00000020: be97 eabe 8f96 ccbe 01c8 d5be 948e 01bd
00000030: c953 9b3e 2cc4 233a b6bb bd3d 016b 6b3b
00000040: 20b9 bdbe 9e57 36bf eb9b a63e 487b 473f
00000050: 4186 803e af6d cf3f 45b6 093f 55b6 0640
00000060: 6f8a 393f 27f4 423f aa31 b2bc ec10 92bd
00000070: 8a75 833e 8ecb 1c3e 4154 2f3f 8546 48bd
00000080: a03b e83f a33f bd3e be5a 4b40 0c5e 2ebe
00000090: 1307 14bf 9cad c63f 0ad9 b73f fbcd 8e3b
000000a0: 74b7 fd3e e57c b43f 75b7 ed3f 0dae 4040
000000b0: a72e 0940 e471 1f40 855b ca3e efc6 8f3f
000000c0: 7a0a 2a40 a73f 11be 371a 8c3e b714 433f
000000d0: dc97 c6be ed0d d9bd a88b 8c3f 5bbd 1e40
000000e0: 8d8e ed3e fab4 fa3e 0d75 5dbf b65f 4d3f
000000f0: 7f75 243f 2789 763f 7d1c 6e3f fa95 bdbe
00000100: 575a 223e bb3a 203f 112b 533e c4a0 85bf
00000110: 29f4 2a40 eb23 c1be fc25 203e 37fe 2740
00000120: 75ca 1040 cded 8bbf 7674 eb3f af88 2640
00000130: 788a d73f ae20 ff3f 8ccf 853f 4033 d93f
00000140: 6d86 bf3e ac0c 0740 774b 0840 db21 953d
00000150: b617 8040 d450 4b40 a0fb a1bf a337 c53e
00000160: a883 2740 7283 6a40 5480 20bf 06e1 ff3f
00000170: 7e89 1440 09bd 1840 4b98 1a40 0448 0540
00000180: 5d5d fc3f f49b 98bc 2e14 4740 7f3c 2040
00000190: bf6e 97be e914 6040 d4c3 7fbe 757a e1be
000001a0: 60e5 433e 4a7a 743f 6a6c 733f 55c7 de3e
000001b0: a5f5 c9bd 8866 0fc0 15fe 613f a49c fa3f
000001c0: fc2e 8b3f 7900 6abf 74c2 813d 4ee4 c9be
000001d0: 354c 973f ee7f 8e3e f05a 5bbf 1298 4440
000001e0: 2ae0 16bf a9f7 323d 04ca 1240 2a88 4a40
000001f0: 81f0 32bf b638 ce3f 43bb 9e3f 55e2 1a40
00000200: 3280 e63f c175 703f 9fe1 9e3f b0f2 1bbe
00000210: 2f8b 0140 de6e 2040 d028 8bbe 9ba7 403f
00000220: 9b20 c63f 5014 183f a614 55bf 9bc8 9d3d
00000230: 6443 0d3f 2f9a ddbd 4df0 a63e 6dbd a13f
00000240: 0558 973f 1ca4 c53f 72ef 9a3f fd47 1d40
00000250: 1ad0 ba3e 16ff e03e 99cf b53f 1089 bdbf
00000260: 43d8 b73f b12b 3140 234e 143e 15ca 86be
00000270: aec9 143f fa89 c33f 2671 a5be a73c ab3e
00000280: 6880 3540 27ff 273f 28c5 01bf 8a2f ca3f
00000290: 4ee5 953f 8ba7 503e fd95 733f fdf0 e13f
000002a0: ceee 913e 5016 2240 143d 6640 bb42 debe
000002b0: 7a43 65be 9f85 f33f 6493 1540 fd16 5d3d
000002c0: 04e9 3d3f 4eb3 173e 99a2 b33f fd41 4040
000002d0: 5dae fa3f 03ed 0240 6c30 713d ed45 b83f
000002e0: bbfa 2740 7cc7 f93d ac86 73bf 54e3 923f
000002f0: 926d 843e a88d f23e a55e 893f 6838 22c0
00000300: ef84 88be 46c3 16c0 aab3 473f 5203 a83f
00000310: 0826 36be 738b c63f c68e e93f 87f0 b5be
00000320: bbf6 053f c733 843f 0b76 06c0 6895 903f
00000330: b356 26be d502 473e bda0 723d 80ee f93e
00000340: 3e4a 2b3f 5336 91be f19f aa3f 9cd5 023f
00000350: 18cc a33f de24 adbf e215 053f 52fd db3f
00000360: adfd a43e 58be 12be 4643 653e 091a 8d3e
00000370: db9a 963d 4260 ba3f f163 b63b b6f4 573e
00000380: a8bb 073f df9a 0dbf c06e 29be 0f54 1d3f
00000390: 4ca1 953e a34d a03f 44ec af3f f9ec ef3e
000003a0: 908e fe3e 8cc6 d1bd 1d28 b63e c878 843f
000003b0: fd20 26bf 4a25 0abe 97c9 0840 7e1e abbe
000003c0: 2340 d73e ce68 aa3f c53d b63f 69da e73d
000003d0: 1105 053e fd72 c1bf 45c8 7f3f f5cb 0040
000003e0: f90b 073f 733d 743f cd05 79be 6738 4a3e
000003f0: 9edb 7f3f a30c cc3e 66b3 1bbf a287 93be
-0.018674228 0.093879044 -0.28975987 0.14912751 0.031414792 -0.08341114 0.15412603 -0.36572176
-0.45818895 -0.39958617 -0.41754153 -0.031630114 0.3033736 0.00062471884 0.09264319 0.0035921934
-0.37055302 -0.71227443 0.3254083 0.7792249 0.25102428 1.6205348 0.53793746 2.1048787
0.7247686 0.76153797 -0.021752197 -0.07132134 0.25675613 0.15312025 0.68487936 -0.048895378
1.8143196 0.36962613 3.1774135 -0.17028064 -0.57823294 1.5521731 1.436311 0.004358051
0.49554026 1.4100615 1.8571612 3.0106232 2.1434724 2.4913263 0.3952295 1.1232585
2.6568894 -0.14184438 0.2736375 0.76203483 -0.38787735 -0.10598359 1.098012 2.4803073
0.4639782 0.489662 -0.8650673 0.8022417 0.64241785 0.9630303 0.9301222 -0.37028486
0.15854774 0.62589616 0.20621897 -1.0439687 2.6711524 -0.37722716 0.1563949 2.624891
2.262357 -1.0931946 1.8394916 2.6020925 1.6839132 1.9931848 1.0453963 1.6968765
0.37407246 2.1101484 2.129606 0.07281848 4.0028944 3.1768084 -1.2654915 0.3851901
2.6174107 3.6642728 -0.62695813 1.9990547 2.3208919 2.3865378 2.4155452 2.0825205
1.9715992 -0.018629052 3.1106067 2.5036924 -0.2957668 3.5012763 -0.24977046 -0.4403874
0.19130468 0.954991 0.950873 0.43511453 -0.09861306 -2.240633 0.88278323 1.9579053
1.0873713 -0.9140697 0.06335917 -0.39431995 1.1820132 0.27831978 -0.85685635 3.0717816
-0.589358 0.04369322 2.29358 3.1645608 -0.6989823 1.6111057 1.2400898 2.4200642
1.8007872 0.9392968 1.2412604 -0.15229297 2.02412 2.5067668 -0.27179575 0.75255746
1.54787 0.59405994 -0.8323463 0.07704278 0.55180955 -0.10820424 0.3260521 1.2635933
1.1823736 1.5440707 1.2104323 2.4575188 0.36486894 0.43944615 1.4203979 -1.4807453
1.4362873 2.7682917 0.14482932 -0.2632605 0.5812024 1.5276482 -0.32312888 0.33444712
2.8359623 0.65623707 -0.5069146 1.5795758 1.1710603 0.20376413 0.9515074 1.7651669
0.28502506 2.5326118 3.597478 -0.43410286 -0.22389022 1.9025153 2.337121 0.053977
0.7418368 0.14814493 1.4033996 3.0040276 1.9584461 2.045716 0.05888407 1.439634
2.6246784 0.12196252 -0.9512737 1.1475625 0.25864846 0.473737 1.0732008 -2.5346928
-0.2666392 -2.3556685 0.7800852 1.3126013 -0.17787945 1.5511307 1.8246696 -0.3553507
0.52329606 1.0328301 -2.1009548 1.1295595 -0.1624401 0.19434674 0.059235323 0.48814774
0.6691016 -0.2836176 1.333006 0.5110719 1.279666 -1.3526876 0.51986516 1.7186682
0.3222479 -0.14330423 0.22388944 0.27558926 0.07353755 1.4560626 0.005566113 0.21089444
0.53020716 -0.5531444 -0.16546154 0.6145639 0.29224622 1.2523693 1.3743978 0.46860483
0.49718142 -0.10242948 0.3557748 1.034936 -0.64894086 -0.13490787 2.137304 -0.334217
0.4204112 1.3313234 1.42376 0.11320955 0.12990214 -1.5113217 0.9991496 2.0124485
0.52752644 0.95406264 -0.24318619 0.19748078 0.99944484 0.3985339 -0.60820615 -0.28814417

sequential/dense_5/MatMul f4 [17, 17]
00000000: dc2b b5bd 44b5 cfbe 5abd ac3f c28a 813e
00000010: a033 e2be 13e6 1bbf 809b d63e d731 92bd
00000020: fa36 a7be 1bdc 6dbf 5376 263f 3655 c0be
00000030: dd86 62be a786 8f3f 7c69 ff3f d905 ad3e
00000040: 3b39 cb3f 2c24 853e 89c4 a53e b5e1 bbbf
00000050: 511d 053d d152 8fbf 285b e3bf 0fc2 31be
00000060: 2cbc cdbf 6256 f53f eecb f63f 2274 bfbf
00000070: b91d 443e bd5e 453f 1bdf 263f 18d2 7d3e
00000080: 66e5 6dbe 734c 76be 135b 39be 5a47 58bf
00000090: b3dc 0e40 fc36 9fbc 1552 c83f 55de da3f
000000a0: 7a0f 8fbe d01f 473f be8b b33f 5863 4940
000000b0: d736 b63f 27e9 0440 0355 3e3f 115d 5e3f
000000c0: 7222 d63e 4c9e 19bf 7b69 d03f 2892 723d
000000d0: a0e1 97bf 1877 2640 f2bc f33e bab2 d43f
000000e0: fe31 e23f df60 e6be c6b2 763f f5d6 c53e
000000f0: 4690 f83f dc93 283f badd cc3f 093a 973f
00000100: a1fb 9a3f ceca 313f 66ea ddbd 56f9 a63f
00000110: c387 93be bf45 8cbe b51f 2940 efad 3d3d
00000120: 9946 2c3f ee99 823f 077e a6bf 4250 3c3f
00000130: 4028 513f cefd dd3f fd29 8d3f 86e9 0240
00000140: 468e 28bf 5344 0fbe cc3a 0cbe 41f6 873d
00000150: cef8 123f bba1 a2be e354 7d3f b7a6 8bbf
00000160: aa14 0abf 1b79 4ebf 6e96 87bf 7966 f5bd
00000170: d55f c6bf ef2b 15bf 6135 0ebf 50b3 f5bf
00000180: 13c9 513e 3a89 ca3d bc34 e8be 325d 6cbe
00000190: 93c5 323e a555 37bf 1309 743e c2b3 8dbe
000001a0: 93d3 bcbe ade0 4f3e 5ae8 893f 528f 8a3f
000001b0: 294e 033d 6d3d 3cbf 31e4 963f 923a c03e
000001c0: c192 39bf 7d60 5d3f 8a92 5b3f cdd8 153f
000001d0: 6b99 99be 848b 4fbe 9cff 11bf bdbc 203c
000001e0: ff0f 5ebe 7161 b8bf f630 6cbf 3c20 babc
000001f0: 3b67 3abf 23a1 d3be 5520 0cbf 4840 a93f
00000200: 16d4 b63f 2963 04c0 3dd9 3b3f 2667 1abf
00000210: d044 313f a125 7abf 95a7 453e 80c7 7ebf
00000220: fa1f bbbd efb5 813d 5d30 37bf d8a7 d83e
00000230: e21e 243e 9ae5 a13e 6d22 81bc 92ce 3bbf
00000240: fb67 f23f 26fd 2440 ed13 6cbf dcd1 c53e
00000250: 75ff cf3f 0de1 513f 13cc 2d3e b455 d3bd
00000260: 8963 77bf d8f8 cfbd c462 e0bc 0180 fe3f
00000270: 1444 873f 4774 483e 1fb9 9dbd 9e28 c43f
00000280: 1b15 123e f641 51bf a4ca 0fbf edb4 ac3f
00000290: 98b8 91bf 7c82 51bf ae79 453f bfa7 f43f
000002a0: b143 563d f029 1140 79bf 8a3e ccd7 1d3f
000002b0: 1e5b d53e bc8f c33f ea94 303f 9ac1 113f
000002c0: 531f 493f 9442 a33f 747f 62be 86bb 0a3c
000002d0: 69e7 933e 9cca 3cbf 3d63 433e 172a 253f
000002e0: 44bb 863e d071 053f bf72 973f 2177 b23e
000002f0: d2b3 adbc 4900 883f 7698 e0be 702e a63e
00000300: a325 e7bd feab 6bbf 3daf 9a3e 8076 5ebf
00000310: b9c8 2bbf 593b 6d3e 6cdd 023f 192a 1ac0
00000320: 58b6 e33e ca51 65be fcda 413c 1d73 443c
00000330: 5663 433e 18aa c8be 194a ac3f b1fc 973f
00000340: 86fe 393e 75b0 bb3e b1d7 6a3f b2c9 343f
00000350: 5bdb 10bf 6d2d 233e b350 c93f 61a3 4fbf
00000360: 18b9 903d 0cea 913f 264d cb3f 6ac2 013f
00000370: 612d 0b40 bbd9 3b3e fa1c 2b3d 0b90 3dbf
00000380: 8ba1 763f e301 07be fcb1 3ebe c5c9 edbd
00000390: 07fd 47bf f17a 1540 928c f73f c374 50bf
000003a0: 360c 533f 60cd c93f 5a52 ec3e 07e1 ac3d
000003b0: 7345 77be a5d8 54bf 4b82 973d 8713 433f
000003c0: d02e 4f3e 6729 363f a55a 5c3f 6295 333f
000003d0: 49c9 82bf fdd8 593f d820 aebf 4d50 b03f
000003e0: f236 81bd bad7 443f 75c5 9c3f d41f a3bf
000003f0: c3c2 053e e588 a3be 3b68 37be 623a ddbe
-0.08846256 -0.40567982 1.3495286 0.25301176 -0.44180012 -0.6089794 0.41915512 -0.071384124
-0.3265913 -0.9291398 0.650243 -0.3756501 -0.22121759 1.1212968 1.9954066 0.33793524
1.587684 0.2600416 0.32376507 -1.4678255 0.03249866 -1.1197149 -1.7762194 -0.17359184
-1.607305 1.9166987 1.9280984 -1.4957316 0.19151963 0.77097684 0.6518418 0.24787176
-0.2323204 -0.240526 -0.18101148 -0.84483874 2.2322204 -0.019435398 1.565005 1.70991
-0.27941495 0.7778292 1.4027021 3.1466885 1.4235486 2.0767305 0.7434847 0.8686076
0.41823155 -0.60007167 1.628219 0.059221417 -1.186573 2.601019 0.4760509 1.6617043
1.7671506 -0.44995782 0.96366537 0.38640562 1.9419029 0.65850616 1.6005166 1.1814586
1.2108041 0.6945008 -0.108357236 1.3044841 -0.28814515 -0.27396962 2.6425602 0.046308454
0.67295223 1.0203226 -1.300721 0.73559964 0.8170204 1.734308 1.1028439 2.0455031
-0.6584209 -0.13990907 -0.13694304 0.06638766 0.57410896 -0.31764016 0.9895765 -1.0910252
-0.5393778 -0.8065354 -1.0592782 -0.11982436 -1.5497996 -0.5827016 -0.555502 -1.9195347
0.2048686 0.09889455 -0.45352733 -0.23082426 0.17458181 -0.7161506 0.23831587 -0.27676207
-0.36880168 0.20300551 1.0774033 1.0824988 0.03205696 -0.7353123 1.1788388 0.37544686
-0.72489554 0.86475354 0.85770476 0.58533937 -0.2999986 -0.20268065 -0.57030654 0.009810624
-0.2168579 -1.4404737 -0.9226221 -0.022720449 -0.7281377 -0.41333875 -0.54736835 1.3222742
1.4283473 -2.0685523 0.73378354 -0.6031364 0.69245625 -0.9771367 0.19302209 -0.9952316
-0.091369584 0.06333529 -0.7155817 0.42315555 0.16027406 0.31620485 -0.015763486 -0.73362076
1.8937982 2.577951 -0.92217904 0.38636672 1.6249834 0.81984025 0.1697238 -0.10319081
-0.96636254 -0.10154885 -0.027390845 1.9882814 1.0567651 0.19575606 -0.07701325 1.5324895
0.14265864 -0.81741273 -0.5616858 1.3492714 -1.1384459 -0.8183973 0.77138793 1.9113692
0.05231065 2.2681847 0.27099207 0.61657405 0.4167108 1.5278239 0.68977225 0.5693604
0.7856342 1.2754693 -0.22118932 0.008467561 0.2888749 -0.7374666 0.19080825 0.6451735
0.26314747 0.5212679 1.1831893 0.34856513 -0.02120391 1.0625087 -0.43866318 0.32457304
-0.112864755 -0.92059314 0.3021182 -0.86899567 -0.67103153 0.2316717 0.5111911 -2.4088194
0.44475055 -0.22394481 0.011831995 0.011990336 0.19080862 -0.3919227 1.3460113 1.187399
0.18163499 0.36658064 0.9173537 0.7062026 -0.5658471 0.15935297 1.5727752 -0.8110867
0.07066554 1.139955 1.5882919 0.5068728 2.1746447 0.18344776 0.04177568 -0.7404792
0.96340245 -0.13184313 -0.18622583 -0.1161075 -0.78120464 2.3356287 1.9339774 -0.81428164
0.8244051 1.57658 0.4615658 0.08441358 -0.24147587 -0.83143073 0.07397898 0.7620167
0.20232701 0.71156925 0.8607581 0.70149815 -1.0217677 0.8509672 -1.3603773 1.3774506
-0.06309308 0.7689167 1.2247759 -1.2744088 0.13062577 -0.3194038 -0.17910855 -0.43208605

sequential/dense_6/MatMul f4 [17, 17]
00000000: a38b 993f 5355 b03f 17c0 1a3e 7752 883e
00000010: d107 683f 3911 463f 0d70 d83e bdf4 49bd
00000020: db1d 9a3d 06c6 e23f 273b 943f e53f 983e
00000030: 75a8 4d3f 4a0a 653d c77c 473f a2bb 0f3f
00000040: b390 6c3e 5c0c 063e 4560 3a3e 3de9 3abf
00000050: 0718 b9bf b213 9fbf 04c1 53bd cb7a 5c3e
00000060: c48f 02bf 79e6 fd3e 562a 2abf 797f 2a3e
00000070: 97fa 46bf b898 b63e 9a2c 263f 0a0f e63e
00000080: c036 b9be 95a0 783f f5e9 353e c84d d13e
00000090: eeb8 dc3e 50fa 2d3e ca14 16bf 1dd6 f5bd
000000a0: 72ba 523d 06a3 eb3e 4560 db3e 00ba 2d3e
000000b0: dd98 ddbc 720a 47bb 82ec 5bbe 369d bc3d
000000c0: 4127 073d d3d2 b93e edc6 f53e 0bd8 b63d
000000d0: 5794 cb3e abbf f2bd 2be7 a1bf 89e7 7fbf
000000e0: e1e3 7fbe 7414 533f 50e9 0e3f 296b 493f
000000f0: 5dc2 acbe 9742 c73c 2d99 91be 9587 ae3e
00000100: a531 1e3f 32eb 7b3e 9322 013f 1ea7 873f
00000110: 3f7f 8e3e 8b2a a3be b63d 383f af29 903f
00000120: c17c c8bd ebc2 f4be cc5f 10bb 8eb8 38be
00000130: ff97 7fbd 9344 693f 4b6b 573e b2c2 3abe
00000140: a1f9 123f 83b6 dcbe 1248 f2be e790 cabe
00000150: 4b02 76be 7ee2 29bf 69ca ed3e ddc2 a73c
00000160: d2e9 43bf ae00 abbf 65c6 08be ec37 f53e
00000170: 6a46 3a3f 50de 403f c356 023f c7c7 d93e
00000180: 831b 52bf 8fb1 61bf 0996 c93f 3263 e5be
00000190: 326a 69bd c63a e83e 8dcc c83e 3f3e ccbc
000001a0: cc8e 903e 17f6 5c3f fa1f 003e ee90 0b3f
000001b0: c360 a33d 8414 923f b2d0 8d3f 17cc 1abf
000001c0: a017 47bf 50d6 0fbf 6e00 d13d ef46 553e
000001d0: a194 9dbc c0c8 f4be 5e5c bb3e 5b21 893e
000001e0: 3f87 933e e327 c3be 7ed9 abbe 7607 d5bf
000001f0: 454a a93e f73d d03e 1bd4 bfbe 3275 af3e
00000200: 99bc 35bf 01af 753d cc48 78bf 2663 b83e
00000210: b4e8 853f 10c1 fc3d 3282 2cbf cd18 703f
00000220: 2f95 a9be 8919 803f 3d6e 953f ad4a 14be
00000230: 1271 363e b6eb 2e3e 4ef7 a13e 7dde af3f
00000240: 0d44 6abe acb3 42bf 9a6c 26bf 19fb 4e3f
00000250: b1e3 8fbd 12a3 aa3e 3ba6 4f3d 8908 4cbd
00000260: ce40 0640 4370 773e f373 9ebd 7ad4 c63d
00000270: ac05 6a3f 073d bf3e 424b f9be 15b0 263f
00000280: 90e1 c2bc 5771 b13e 59c5 b6be d18b 5bbd
00000290: 344a 233f 1a82 9ebe 7e3f 8f3f f3af 0abe
000002a0: 87fc 8e3f dff3 293c 95d0 813e 34f1 f3be
000002b0: fe0f bc3d a22d 573f 4daf af3e 289c d03e
000002c0: 9bf2 cf3e 07c2 8b3f c437 b3bc 4b6f 1fbf
000002d0: 403c 05bf f379 1e3f e098 f1be 9c9d 0a3f
000002e0: a04c 96bd 85ba 9d3e 893d 6a3e 785b 9cbe
000002f0: e39c 3a3e 85ea 06be c6e4 c9bf 08b4 aabe
00000300: f41d 7ebc 418b fc3e c5ff 713f 26a5 6d3f
00000310: dadd 0e3f 9cfb a7bd 8e43 55bf 984d 82be
00000320: 82b3 913f c5d2 a83a dfa6 b73d 38c9 743f
00000330: 588c 61be d55e 593f bbd1 6c3f d5ce 84be
00000340: 48ce 813f 49d6 503e 2a2a 553f d10c e83f
00000350: 2a11 5e3f 88cf 75be 17c5 7cbf 7dbf b53f
00000360: 4e8c 0abf 977d 723f eaad df3e 572b ddbd
00000370: 7051 a93f 39a9 1cbf cca5 7b3d 2757 a83e
00000380: 40af 8a3e ceb9 0f3f fb0b 2b3e d163 893e
00000390: 5e00 d8be e32d b0be e5e3 45be c49f 313e
000003a0: bb8e 88be 9f59 c1be f420 b33e fc91 c8be
000003b0: c0d0 92bd 6c6e 6dbf 09a7 413d ac55 da3e
000003c0: b030 683f f7d2 c7be 1b72 a03f b94c 5fbf
000003d0: 929a 453f 1fb3 8d3f d45d b03d 0462 093f
000003e0: d08d 123f 5e8b d33f 8666 243f c326 7f3f
000003f0: ca2a 3b3f 1779 cd3f ec51 8d3f 8579 2cbe
1.1995739 1.3776039 0.15112339 0.26625416 0.90636927 0.7737003 0.42272988 -0.049305666
0.07525226 1.7716682 1.1580552 0.29736248 0.8033517 0.055918016 0.7792477 0.5614568
0.23102073 0.13090652 0.18200786 -0.73012143 -1.4460458 -1.2427886 -0.051697746 0.21531217
-0.5100062 0.495899 -0.6647085 0.1665019 -0.7772612 0.3566339 0.64911807 0.4493335
-0.36174583 0.9712003 0.17765029 0.40879655 0.4310984 0.16990018 -0.5862547 -0.120037295
0.05144734 0.46022815 0.42846885 0.16965485 -0.02705043 -0.0030371216 -0.2147694 0.09209673
0.03299642 0.3629366 0.4800333 0.08927926 0.39761612 -0.11852964 -1.2648672 -0.9996267
-0.24989273 0.82453084 0.55824757 0.7867914 -0.33742037 0.024323745 -0.28437176 0.34087816
0.617945 0.24601439 0.5044338 1.0597875 0.27831456 -0.31868395 0.71969163 1.1262721
-0.0978942 -0.4780496 -0.0022029756 -0.18039152 -0.062400814 0.9112026 0.21037023 -0.18238333
0.57412153 -0.43107995 -0.4732061 -0.39563677 -0.24024312 -0.66361225 0.4644349 0.02047866
-0.76528656 -1.3359582 -0.13356932 0.47894228 0.72763693 0.7533922 0.5091364 0.4253523
-0.8207323 -0.8816156 1.5748912 -0.44802243 -0.05698604 0.4535734 0.3921856 -0.024932025
0.28233945 0.86313003 0.12512198 0.5451802 0.0797744 1.1412511 1.1079314 -0.60467666
-0.77770424 -0.5618639 0.1020516 0.2082784 -0.01923591 -0.4780941 0.36593908 0.2678326
0.28814122 -0.3811637 -0.3356437 -1.6642902 0.33064476 0.40672275 -0.3746651 0.342691
-0.709909 0.05998135 -0.9698608 0.36013144 1.046164 0.12341511 -0.6738616 0.93787843
-0.3312163 1.0007793 1.1674267 -0.14481612 0.1781657 0.17082104 0.3163399 1.3739773
-0.22877522 -0.7605541 -0.6500946 0.80851895 -0.070258506 0.33327538 0.05069564 -0.049812827
2.0977054 0.24163918 -0.07736959 0.097084954 0.91414905 0.37351248 -0.4869023 0.6511243
-0.023789197 0.34656784 -0.3569744 -0.053600136 0.637851 -0.30958635 1.1191251 -0.13543682
1.1170815 0.010373085 0.25354448 -0.4764496 0.09182738 0.84054005 0.3431343 0.40744138
0.4061478 1.0918587 -0.021877177 -0.62279195 -0.5204506 0.6190483 -0.47186947 0.5414674
-0.07338834 0.30806366 0.22875036 -0.30538535 0.1822391 -0.131754 -1.5772941 -0.33340478
-0.015510071 0.49324992 0.945309 0.9283012 0.5580727 -0.082022876 -0.83306205 -0.25449824
1.1382906 0.0012880197 0.08967375 0.95619535 -0.22026193 0.8491033 0.92507523 -0.2593905
1.0141077 0.20394243 0.8326746 1.8128911 0.8674494 -0.24004948 -0.98738235 1.4199063
-0.5412034 0.94722885 0.43687373 -0.10799282 1.3227978 -0.61195713 0.061437413 0.32878992
0.2708683 0.5614289 0.16703789 0.26833966 -0.4218778 -0.3441001 -0.19325216 0.17346102
-0.26671395 -0.37763688 0.3498608 -0.39173877 -0.07168722 -0.92746615 0.047278438 0.42643487
0.9069929 -0.3902814 1.2534822 -0.87226444 0.7718898 1.1070288 0.08611646 0.53665185
0.5724764 1.6526906 0.6421894 0.9966852 0.73112166 1.6052579 1.1040626 -0.16843231
